Model
________________________________________________________________________________
Layer (type)                        Output Shape                    Param #     
================================================================================
conv_1 (Conv2D)                     (None, 26, 26, 16)              160         
________________________________________________________________________________
pool_1 (MaxPooling2D)               (None, 13, 13, 16)              0           
________________________________________________________________________________
flatten_1 (Flatten)                 (None, 2704)                    0           
________________________________________________________________________________
dense_1 (Dense)                     (None, 64)                      173120      
________________________________________________________________________________
output (Dense)                      (None, 10)                      650         
================================================================================
Total params: 173,930
Trainable params: 173,930
Non-trainable params: 0
________________________________________________________________________________


