Model
________________________________________________________________________________
Layer (type)                        Output Shape                    Param #     
================================================================================
conv_1 (Conv2D)                     (None, 26, 26, 8)               80          
________________________________________________________________________________
conv_2 (Conv2D)                     (None, 24, 24, 64)              4672        
________________________________________________________________________________
pool_1 (MaxPooling2D)               (None, 12, 12, 64)              0           
________________________________________________________________________________
dropout_1 (Dropout)                 (None, 12, 12, 64)              0           
________________________________________________________________________________
flatten_1 (Flatten)                 (None, 9216)                    0           
________________________________________________________________________________
dense_1 (Dense)                     (None, 128)                     1179776     
________________________________________________________________________________
dense_2 (Dense)                     (None, 128)                     16512       
________________________________________________________________________________
dropout_2 (Dropout)                 (None, 128)                     0           
________________________________________________________________________________
output (Dense)                      (None, 10)                      1290        
================================================================================
Total params: 1,202,330
Trainable params: 1,202,330
Non-trainable params: 0
________________________________________________________________________________


