Model
________________________________________________________________________________
Layer (type)                        Output Shape                    Param #     
================================================================================
conv_1 (Conv2D)                     (None, 26, 26, 16)              160         
________________________________________________________________________________
conv_2 (Conv2D)                     (None, 24, 24, 16)              2320        
________________________________________________________________________________
pool_1 (MaxPooling2D)               (None, 12, 12, 16)              0           
________________________________________________________________________________
dropout_1 (Dropout)                 (None, 12, 12, 16)              0           
________________________________________________________________________________
flatten_1 (Flatten)                 (None, 2304)                    0           
________________________________________________________________________________
dense_1 (Dense)                     (None, 256)                     590080      
________________________________________________________________________________
dense_2 (Dense)                     (None, 32)                      8224        
________________________________________________________________________________
dropout_2 (Dropout)                 (None, 32)                      0           
________________________________________________________________________________
output (Dense)                      (None, 10)                      330         
================================================================================
Total params: 601,114
Trainable params: 601,114
Non-trainable params: 0
________________________________________________________________________________


