Model
________________________________________________________________________________
Layer (type)                        Output Shape                    Param #     
================================================================================
conv_1 (Conv2D)                     (None, 26, 26, 8)               80          
________________________________________________________________________________
conv_2 (Conv2D)                     (None, 24, 24, 16)              1168        
________________________________________________________________________________
pool_1 (MaxPooling2D)               (None, 12, 12, 16)              0           
________________________________________________________________________________
dropout_1 (Dropout)                 (None, 12, 12, 16)              0           
________________________________________________________________________________
flatten_1 (Flatten)                 (None, 2304)                    0           
________________________________________________________________________________
dense_1 (Dense)                     (None, 64)                      147520      
________________________________________________________________________________
dense_2 (Dense)                     (None, 128)                     8320        
________________________________________________________________________________
dropout_2 (Dropout)                 (None, 128)                     0           
________________________________________________________________________________
output (Dense)                      (None, 10)                      1290        
================================================================================
Total params: 158,378
Trainable params: 158,378
Non-trainable params: 0
________________________________________________________________________________


