Model
________________________________________________________________________________
Layer (type)                        Output Shape                    Param #     
================================================================================
conv_1 (Conv2D)                     (None, 26, 26, 32)              320         
________________________________________________________________________________
conv_2 (Conv2D)                     (None, 24, 24, 32)              9248        
________________________________________________________________________________
pool_1 (MaxPooling2D)               (None, 12, 12, 32)              0           
________________________________________________________________________________
dropout_1 (Dropout)                 (None, 12, 12, 32)              0           
________________________________________________________________________________
flatten_1 (Flatten)                 (None, 4608)                    0           
________________________________________________________________________________
dense_1 (Dense)                     (None, 128)                     589952      
________________________________________________________________________________
dense_2 (Dense)                     (None, 32)                      4128        
________________________________________________________________________________
dropout_2 (Dropout)                 (None, 32)                      0           
________________________________________________________________________________
output (Dense)                      (None, 10)                      330         
================================================================================
Total params: 603,978
Trainable params: 603,978
Non-trainable params: 0
________________________________________________________________________________


