Model
________________________________________________________________________________
Layer (type)                        Output Shape                    Param #     
================================================================================
conv_1 (Conv2D)                     (None, 26, 26, 16)              160         
________________________________________________________________________________
conv_2 (Conv2D)                     (None, 24, 24, 32)              4640        
________________________________________________________________________________
pool_1 (MaxPooling2D)               (None, 12, 12, 32)              0           
________________________________________________________________________________
dropout_1 (Dropout)                 (None, 12, 12, 32)              0           
________________________________________________________________________________
flatten_1 (Flatten)                 (None, 4608)                    0           
________________________________________________________________________________
dense_1 (Dense)                     (None, 128)                     589952      
________________________________________________________________________________
dense_2 (Dense)                     (None, 64)                      8256        
________________________________________________________________________________
dropout_2 (Dropout)                 (None, 64)                      0           
________________________________________________________________________________
output (Dense)                      (None, 10)                      650         
================================================================================
Total params: 603,658
Trainable params: 603,658
Non-trainable params: 0
________________________________________________________________________________


