Model
________________________________________________________________________________
Layer (type)                        Output Shape                    Param #     
================================================================================
conv_1 (Conv2D)                     (None, 26, 26, 32)              320         
________________________________________________________________________________
conv_2 (Conv2D)                     (None, 24, 24, 16)              4624        
________________________________________________________________________________
pool_1 (MaxPooling2D)               (None, 12, 12, 16)              0           
________________________________________________________________________________
dropout_1 (Dropout)                 (None, 12, 12, 16)              0           
________________________________________________________________________________
flatten_1 (Flatten)                 (None, 2304)                    0           
________________________________________________________________________________
dense_1 (Dense)                     (None, 256)                     590080      
________________________________________________________________________________
dense_2 (Dense)                     (None, 256)                     65792       
________________________________________________________________________________
dropout_2 (Dropout)                 (None, 256)                     0           
________________________________________________________________________________
output (Dense)                      (None, 10)                      2570        
================================================================================
Total params: 663,386
Trainable params: 663,386
Non-trainable params: 0
________________________________________________________________________________


