Model
________________________________________________________________________________
Layer (type)                        Output Shape                    Param #     
================================================================================
conv_1 (Conv2D)                     (None, 26, 26, 32)              320         
________________________________________________________________________________
conv_2 (Conv2D)                     (None, 24, 24, 8)               2312        
________________________________________________________________________________
pool_1 (MaxPooling2D)               (None, 12, 12, 8)               0           
________________________________________________________________________________
dropout_1 (Dropout)                 (None, 12, 12, 8)               0           
________________________________________________________________________________
flatten_1 (Flatten)                 (None, 1152)                    0           
________________________________________________________________________________
dense_1 (Dense)                     (None, 64)                      73792       
________________________________________________________________________________
dense_2 (Dense)                     (None, 64)                      4160        
________________________________________________________________________________
dropout_2 (Dropout)                 (None, 64)                      0           
________________________________________________________________________________
output (Dense)                      (None, 10)                      650         
================================================================================
Total params: 81,234
Trainable params: 81,234
Non-trainable params: 0
________________________________________________________________________________


