Model
________________________________________________________________________________
Layer (type)                        Output Shape                    Param #     
================================================================================
conv_1 (Conv2D)                     (None, 26, 26, 32)              320         
________________________________________________________________________________
pool_1 (MaxPooling2D)               (None, 13, 13, 32)              0           
________________________________________________________________________________
flatten_1 (Flatten)                 (None, 5408)                    0           
________________________________________________________________________________
dense_1 (Dense)                     (None, 64)                      346176      
________________________________________________________________________________
output (Dense)                      (None, 10)                      650         
================================================================================
Total params: 347,146
Trainable params: 347,146
Non-trainable params: 0
________________________________________________________________________________


