Model
________________________________________________________________________________
Layer (type)                        Output Shape                    Param #     
================================================================================
conv_1 (Conv2D)                     (None, 26, 26, 8)               80          
________________________________________________________________________________
conv_2 (Conv2D)                     (None, 24, 24, 64)              4672        
________________________________________________________________________________
pool_1 (MaxPooling2D)               (None, 12, 12, 64)              0           
________________________________________________________________________________
dropout_1 (Dropout)                 (None, 12, 12, 64)              0           
________________________________________________________________________________
flatten_1 (Flatten)                 (None, 9216)                    0           
________________________________________________________________________________
dense_1 (Dense)                     (None, 32)                      294944      
________________________________________________________________________________
dense_2 (Dense)                     (None, 256)                     8448        
________________________________________________________________________________
dropout_2 (Dropout)                 (None, 256)                     0           
________________________________________________________________________________
output (Dense)                      (None, 10)                      2570        
================================================================================
Total params: 310,714
Trainable params: 310,714
Non-trainable params: 0
________________________________________________________________________________


