Model
________________________________________________________________________________
Layer (type)                        Output Shape                    Param #     
================================================================================
conv_1 (Conv2D)                     (None, 26, 26, 16)              160         
________________________________________________________________________________
conv_2 (Conv2D)                     (None, 24, 24, 8)               1160        
________________________________________________________________________________
pool_1 (MaxPooling2D)               (None, 12, 12, 8)               0           
________________________________________________________________________________
dropout_1 (Dropout)                 (None, 12, 12, 8)               0           
________________________________________________________________________________
flatten_1 (Flatten)                 (None, 1152)                    0           
________________________________________________________________________________
dense_1 (Dense)                     (None, 256)                     295168      
________________________________________________________________________________
dense_2 (Dense)                     (None, 256)                     65792       
________________________________________________________________________________
dropout_2 (Dropout)                 (None, 256)                     0           
________________________________________________________________________________
output (Dense)                      (None, 10)                      2570        
================================================================================
Total params: 364,850
Trainable params: 364,850
Non-trainable params: 0
________________________________________________________________________________


