Model
________________________________________________________________________________
Layer (type)                        Output Shape                    Param #     
================================================================================
conv_1 (Conv2D)                     (None, 26, 26, 32)              320         
________________________________________________________________________________
conv_2 (Conv2D)                     (None, 24, 24, 32)              9248        
________________________________________________________________________________
pool_1 (MaxPooling2D)               (None, 12, 12, 32)              0           
________________________________________________________________________________
dropout_1 (Dropout)                 (None, 12, 12, 32)              0           
________________________________________________________________________________
flatten_1 (Flatten)                 (None, 4608)                    0           
________________________________________________________________________________
dense_1 (Dense)                     (None, 256)                     1179904     
________________________________________________________________________________
dense_2 (Dense)                     (None, 128)                     32896       
________________________________________________________________________________
dropout_2 (Dropout)                 (None, 128)                     0           
________________________________________________________________________________
output (Dense)                      (None, 10)                      1290        
================================================================================
Total params: 1,223,658
Trainable params: 1,223,658
Non-trainable params: 0
________________________________________________________________________________


