Model
________________________________________________________________________________
Layer (type)                        Output Shape                    Param #     
================================================================================
conv_1 (Conv2D)                     (None, 26, 26, 8)               80          
________________________________________________________________________________
conv_2 (Conv2D)                     (None, 24, 24, 8)               584         
________________________________________________________________________________
pool_1 (MaxPooling2D)               (None, 12, 12, 8)               0           
________________________________________________________________________________
dropout_1 (Dropout)                 (None, 12, 12, 8)               0           
________________________________________________________________________________
flatten_1 (Flatten)                 (None, 1152)                    0           
________________________________________________________________________________
dense_1 (Dense)                     (None, 128)                     147584      
________________________________________________________________________________
dense_2 (Dense)                     (None, 32)                      4128        
________________________________________________________________________________
dropout_2 (Dropout)                 (None, 32)                      0           
________________________________________________________________________________
output (Dense)                      (None, 10)                      330         
================================================================================
Total params: 152,706
Trainable params: 152,706
Non-trainable params: 0
________________________________________________________________________________


