Model
________________________________________________________________________________
Layer (type)                        Output Shape                    Param #     
================================================================================
conv_1 (Conv2D)                     (None, 26, 26, 64)              640         
________________________________________________________________________________
conv_2 (Conv2D)                     (None, 24, 24, 64)              36928       
________________________________________________________________________________
pool_1 (MaxPooling2D)               (None, 12, 12, 64)              0           
________________________________________________________________________________
dropout_1 (Dropout)                 (None, 12, 12, 64)              0           
________________________________________________________________________________
flatten_1 (Flatten)                 (None, 9216)                    0           
________________________________________________________________________________
dense_1 (Dense)                     (None, 32)                      294944      
________________________________________________________________________________
dense_2 (Dense)                     (None, 64)                      2112        
________________________________________________________________________________
dropout_2 (Dropout)                 (None, 64)                      0           
________________________________________________________________________________
output (Dense)                      (None, 10)                      650         
================================================================================
Total params: 335,274
Trainable params: 335,274
Non-trainable params: 0
________________________________________________________________________________


