Model
________________________________________________________________________________
Layer (type)                        Output Shape                    Param #     
================================================================================
conv_1 (Conv2D)                     (None, 26, 26, 16)              160         
________________________________________________________________________________
conv_2 (Conv2D)                     (None, 24, 24, 64)              9280        
________________________________________________________________________________
pool_1 (MaxPooling2D)               (None, 12, 12, 64)              0           
________________________________________________________________________________
dropout_1 (Dropout)                 (None, 12, 12, 64)              0           
________________________________________________________________________________
flatten_1 (Flatten)                 (None, 9216)                    0           
________________________________________________________________________________
dense_1 (Dense)                     (None, 128)                     1179776     
________________________________________________________________________________
dense_2 (Dense)                     (None, 64)                      8256        
________________________________________________________________________________
dropout_2 (Dropout)                 (None, 64)                      0           
________________________________________________________________________________
output (Dense)                      (None, 10)                      650         
================================================================================
Total params: 1,198,122
Trainable params: 1,198,122
Non-trainable params: 0
________________________________________________________________________________


