Model
________________________________________________________________________________
Layer (type)                        Output Shape                    Param #     
================================================================================
conv_1 (Conv2D)                     (None, 26, 26, 64)              640         
________________________________________________________________________________
conv_2 (Conv2D)                     (None, 24, 24, 32)              18464       
________________________________________________________________________________
pool_1 (MaxPooling2D)               (None, 12, 12, 32)              0           
________________________________________________________________________________
dropout_1 (Dropout)                 (None, 12, 12, 32)              0           
________________________________________________________________________________
flatten_1 (Flatten)                 (None, 4608)                    0           
________________________________________________________________________________
dense_1 (Dense)                     (None, 128)                     589952      
________________________________________________________________________________
dense_2 (Dense)                     (None, 128)                     16512       
________________________________________________________________________________
dropout_2 (Dropout)                 (None, 128)                     0           
________________________________________________________________________________
output (Dense)                      (None, 10)                      1290        
================================================================================
Total params: 626,858
Trainable params: 626,858
Non-trainable params: 0
________________________________________________________________________________


